app/src/main/assets/model.tflite (tflite, 11100 bytes, 5 tensors)

sequential/dense_1/BiasAdd/ReadVariableOp f4 [32]
0.025267247 -0.016924666 -0.020639578 0.0 0.02293301 -0.011503741 0.023038274 0.062180545
0.023913808 0.0 -0.02262929 -0.018649593 0.0 0.0 0.0 0.0
0.0 0.022996325 -0.017150627 0.0 0.024954427 0.0227391 -0.01887175 0.0
0.0 0.0 0.026096378 0.0 0.0 0.023223406 0.0 0.0
00000000: 42fd ce3c 99a5 8abc 5514 a9bc 0000 0000
00000010: 02de bb3c 307a 3cbc c3ba bc3c 07b1 7e3d
00000020: e4e6 c33c 0000 0000 1061 b9bc 08c7 98bc
00000030: 0000 0000 0000 0000 0000 0000 0000 0000
00000040: 0000 0000 ca62 bc3c 797f 8cbc 0000 0000
00000050: 3a6d cc3c 5947 ba3c ee98 9abc 0000 0000
00000060: 0000 0000 0000 0000 12c8 d53c 0000 0000
00000070: 0000 0000 033f be3c 0000 0000 0000 0000

sequential/dense/BiasAdd/ReadVariableOp f4 [64]
0.0 0.023761632 0.0 -0.017830726 -0.020145087 0.0 0.0079024825 -0.017590566
0.02276125 0.0021223342 0.0 0.0 0.0 0.018615674 -0.015105146 0.0
-0.018840415 0.006009997 0.0 -0.0052545904 0.019764317 0.0 -0.018946836 0.0
0.017040363 0.0 0.0 0.0 0.0 0.0 0.022619115 -0.021460041
0.0233149 0.0 0.0 0.029455133 0.0 0.017301641 -0.028663341 0.02229281
0.0 -0.030896261 0.0 0.0 -0.016640149 -0.019025687 -0.018951211 0.0
-0.028171549 0.014073518 -0.0040898444 0.027650133 0.0 0.0 -0.023171581 0.02115296
0.0 0.0397782 0.035331067 0.02005267 0.0223426 0.021440616 0.0 0.047697354
00000000: 0000 0000 c1a7 c23c 0000 0000 be11 92bc
00000010: 4f07 a5bc 0000 0000 6a79 013c 171a 90bc
00000020: cd75 ba3c dc16 0b3b 0000 0000 0000 0000
00000030: 0000 0000 e67f 983c 937b 77bc 0000 0000
00000040: 3757 9abc 82ef c43b 0000 0000 b32e acbb
00000050: c7e8 a13c 0000 0000 6536 9bbc 0000 0000
00000060: 3b98 8b3c 0000 0000 0000 0000 0000 0000
00000070: 0000 0000 0000 0000 b94b b93c f8cc afbc
00000080: e4fe be3c 0000 0000 0000 0000 e44b f13c
00000090: 0000 0000 2cbc 8d3c 62cf eabc 699f b63c
000000a0: 0000 0000 281a fdbc 0000 0000 0000 0000
000000b0: ec50 88bc c2db 9bbc 923f 9bbc 0000 0000
000000c0: 05c8 e6bc 9d94 663c 1a04 86bb 8882 e23c
000000d0: 0000 0000 0000 0000 54d2 bdbc f948 ad3c
000000e0: 0000 0000 77ee 223d 4fb7 103d 7f45 a43c
000000f0: d407 b73c 3ba4 af3c 0000 0000 4d5e 433d

sequential/dense/MatMul f4 [64, 2]
-0.2815088 -0.10598692 0.12225974 -0.16838405 -0.18776435 0.22779077 0.23134434 -0.077779986
0.059023563 0.23959127 -0.0067712963 0.027870655 0.08735202 -0.27808142 0.1797734 -0.01922673
0.0089282375 0.35536155 0.16729026 0.329746 -0.0013982654 -0.1212496 -0.018368065 -0.2194469
-0.12101726 -0.22945091 0.13417557 -0.021812653 0.20778045 0.14788038 -0.16155782 0.11387956
0.22383787 0.14107652 0.1266445 -0.27077165 -0.095591575 -0.22857447 0.182826 0.31941593
0.26594034 0.0067478097 -0.104845524 0.017397672 0.22240016 -0.07676379 -0.016623259 0.06133622
0.3015843 -0.040664837 -0.21164663 -0.10875453 -0.042319447 -0.063199 -0.20154688 -0.29763338
-0.2597807 0.04835385 -0.2847786 0.18648419 0.3067822 0.30464014 0.26409617 0.15014558
0.179922 0.3328697 -0.024470031 -0.029733956 -0.21726882 -0.23391466 0.110192515 0.1769427
-0.25832662 -0.14779146 0.122981116 -0.21638186 0.0465123 -0.11908583 0.12252319 0.2528714
-0.27039957 -0.051416606 0.2730668 -0.19041857 -0.066322505 0.268283 -0.21839543 -0.18362802
0.06094401 0.2560093 0.1994911 -0.10930535 0.06713279 -0.33481592 -0.1552423 0.09714159
0.18100137 -0.0120116295 0.07369743 -0.19053748 0.045070726 -0.22484823 0.16198899 0.29143667
-0.115422234 0.011614382 -0.21350007 0.17999074 0.22473922 0.22451375 0.2470854 -0.1732652
-0.19000833 0.2917921 0.24670616 0.38308802 -0.001183336 0.36393532 0.10903897 0.11325725
0.03911577 -0.03303056 0.2211122 -0.12294836 -0.032978386 0.13375214 0.2760384 0.09946661
00000000: ec21 90be ac0f d9bd 5163 fa3d de6c 2cbe
00000010: 4c45 40be fc41 693e 88e5 6c3e 1d4b 9fbd
00000020: b1c2 713d 6a57 753e c0e1 ddbb 0051 e43c
00000030: 9ee5 b23d b060 8ebe 8516 383e 6081 9dbc
00000040: be47 123c f3f1 b53e 234e 2b3e 78d4 a83e
00000050: 0046 b7ba b651 f8bd a078 96bc b0b6 60be
00000060: e6d7 f7bd 2ef5 6abe 5265 093e 73b0 b2bc
00000070: 66c4 543e f46d 173e 6a6f 25be b039 e93d
00000080: c135 653e 5d76 103e 19af 013e 95a2 8abe
00000090: 84c5 c3bd 6d0f 6abe bd36 3b3e 7c8a a33e
000000a0: 5529 883e bb1c dd3b 40b9 d6bd 9085 8e3c
000000b0: debc 633e 5536 9dbd 802d 88bc b03b 7b3d
000000c0: 4269 9a3e 2c90 26bd e5b9 58be b2ba debd
000000d0: 2857 2dbd 7a6e 81bd 4e62 4ebe 6763 98be
000000e0: fa01 85be b00e 463d 80ce 91be b6f5 3e3e
000000f0: 8e12 9d3e cbf9 9b3e 9d37 873e c3bf 193e
00000100: 793d 383e e66d aa3e 6075 c8bc a094 f3bc
00000110: b87b 5ebe 5387 6fbe 9dac e13d 7830 353e
00000120: 6343 84be a556 17be 86dd fb3d 3593 5dbe
00000130: ae83 3e3d 46e3 f3bd 70ed fa3d 5c78 813e
00000140: d071 8abe 389a 52bd 69cf 8b3e 16fd 42be
00000150: 18d4 87bd 645c 893e 0da3 5fbe fc08 3cbe
00000160: 6da0 793d a713 833e 6547 4c3e 7cdb dfbd
00000170: eb7c 893d fe6c abbe d6f7 1ebe 2cf2 c63d
00000180: 6c58 393e 6dcc 44bc aeee 963d 421c 43be
00000190: 159c 383d 9d3e 66be 71e0 253e 3037 953e
000001a0: 7e62 ecbd 404a 3e3c c39f 5abe 7e4f 383e
000001b0: 0a22 663e efe6 653e f503 7d3e 6f6c 31be
000001c0: 8b91 42be c665 953e 8aa0 7c3e 1d24 c43e
000001d0: 2b1a 9bba bb55 ba3e d34f df3d 6bf3 e73d
000001e0: dc37 203d 0d4b 07bd 3d6b 623e 5acc fbbd
000001f0: 5814 07bd 52f6 083e e854 8d3e 26b5 cb3d

sequential/dense_1/MatMul f4 [32, 64]
0.0906806 0.16277668 0.20032638 -0.05662706 0.15815839 0.055554986 -0.24491988 0.097032525
-0.077912755 -0.13481003 0.041852474 -0.2398442 0.17491233 -0.039456565 -0.10940603 0.020755649
-0.032615475 -0.086390905 0.10091019 0.04418992 0.11068471 0.10091108 0.13694425 0.20869029
-0.24869202 -0.034201622 -0.11651951 -0.16958433 0.044388473 -0.170784 0.2573772 0.16431667
0.01595011 0.21950436 0.16358727 0.022688786 0.0067016482 -0.03976088 0.2241315 0.19398172
0.112870574 0.08947769 0.19919294 0.16006494 0.19490893 -0.11842262 0.1908974 0.031710327
0.08065091 -0.08870821 0.06448704 0.24119711 0.032532692 0.13392746 0.209338 -0.019467838
0.031735122 -0.13122961 0.19280218 -0.11838748 0.181951 0.18138793 0.22999829 0.055271145
0.09153432 -0.22977994 -0.18988371 0.14877394 -0.12957646 -0.0003823042 -0.23915814 -0.05226019
-0.07913657 0.03836754 0.18420488 -0.14464527 -0.116310954 -0.14708322 0.106599666 -0.24867368
0.16534248 0.0031699052 0.20606643 0.14974557 0.032472122 0.006174922 0.04473853 -0.20516902
-0.20992671 -0.008161306 0.22516292 -0.1656819 0.24341446 -0.110779405 -0.0147980405 -0.06150966
-0.067994066 0.042898 -0.17637724 0.15460862 0.1509577 -0.0148206325 -0.12374434 -0.25619054
0.22791135 -0.13404207 -0.20544487 0.01654625 -0.064746946 0.22120376 0.11717268 0.2027319
0.035082813 -0.03706056 0.16949604 -0.2642766 -0.16307205 -0.13335669 0.21212701 0.21697663
-0.16609311 0.02925184 -0.16098006 0.0009461076 -0.22388737 -0.24163216 0.18403172 -0.07858277
0.080301166 0.25146693 0.04042226 0.11317192 0.15404181 0.13393205 0.027091699 0.09601171
0.12846002 0.14486088 -0.07745355 0.110946596 -0.07820135 -0.11082624 0.2282278 -0.1794194
0.01854561 -0.13871768 -0.12071246 -0.20574105 0.09817197 -0.23364985 0.16532981 0.048208058
-0.19988786 0.042958975 0.122734785 0.010280192 0.14637989 0.19980967 -0.066910185 0.18578848
-0.23521799 -0.18160075 -0.020869613 0.22854997 0.13638252 -0.21609777 0.043615863 0.118865445
0.22568399 -0.24346353 -0.23066378 0.24916518 -0.052660983 -0.0600298 0.11400068 0.20076543
-0.12974854 -0.08900781 -0.19747712 -0.066213846 -0.10534251 -0.15883309 -0.06553756 0.12244705
-0.14883286 0.05042485 -0.088730745 0.22543675 0.22970814 -0.021101123 0.04485303 0.123046994
-0.2312997 -0.11569172 -0.090958714 -0.16541827 0.24397123 -0.024568498 0.006673634 -0.19094169
-0.09345257 -0.18512827 0.17750609 0.07022935 -0.17147803 0.02256757 -0.0003350377 0.06427026
-0.028732836 -0.16921997 0.084083855 0.21853614 -0.21272194 -0.15459609 -0.10263163 0.22701323
0.23909318 -0.2374016 -0.24898016 -0.0376516 -0.09719682 -0.20402652 0.19170904 -0.16305745
-0.07289922 -0.15985274 0.1295197 0.05437529 -0.22261 0.08882022 0.21067291 0.12809688
-0.15691519 -0.17525113 -0.18191028 0.08141667 -0.2474212 0.055460274 0.1372726 0.082624555
0.22295791 0.24414814 0.084032 0.14644355 0.108956754 0.04158777 0.15905088 -0.14616174
0.058701813 0.0011253357 0.16435575 0.03817737 0.15223128 0.17598957 -0.017458737 -0.2323314
00000000: c0b6 b93d eeae 263e 5c22 4d3e c7f1 67bd
00000010: 46f4 213e a08d 633d 47cc 7abe fdb8 c63d
00000020: b990 9fbd a40b 0abe 806d 2b3d b899 75be
00000030: 381c 333e 359d 21bd 4510 e0bd c007 aa3c
00000040: ce97 05bd b7ed b0bd 00aa ce3d 7d00 353d
00000050: aaae e23d 78aa ce3d 1d3b 0c3e e8b2 553e
00000060: 1fa9 7ebe 0017 0cbd c8a1 eebd 84a7 2dbe
00000070: b0d0 353d 00e2 2ebe f2c6 833e a142 283e
00000080: cea9 823c c0c5 603e 6c83 273e d5dd b93c
00000090: 8099 db3b 4edc 22bd ba82 653e 25a3 463e
000000a0: b028 e73d 1440 b73d 3cf9 4b3e 10e8 233e
000000b0: 3596 473e 8f87 f2bd 9c7a 433e b0e2 013d
000000c0: 4e2c a53d a6ac b5bd c811 843d 60fc 763e
000000d0: 0041 053d 4824 093e b35c 563e 047b 9fbc
000000e0: b0fc 013d 0e61 06be ef6d 453e 2375 f2bd
000000f0: 5d51 3a3e c2bd 393e ac84 6b3e ff63 623d
00000100: 5876 bb3d 6f4b 6bbe e070 42be 3258 183e
00000110: b1af 04be 0070 c8b9 dfe5 74be c80e 56bd
00000120: 5b12 a2bd 4827 1d3d 34a0 3c3e e41d 14be
00000130: 7034 eebd fc9c 16be ed50 da3d 50a4 7ebe
00000140: 8a4f 293e 2fbe 4f3b 1403 533e e756 193e
00000150: 7d01 053d 0057 ca3b c03f 373d d417 52be
00000160: 07f7 56be 00b7 05bc 1c91 663e 84a8 29be
00000170: a441 793e 50e0 e2bd 7b73 72bc 8ef1 7bbd
00000180: 7940 8bbd d0b5 2f3d 3c9c 34be b951 1e3e
00000190: a894 1a3e 3dd2 72bc ac6d fdbd 682b 83be
000001a0: 9861 693e 5342 09be 2460 52be 008c 873c
000001b0: 0c9a 84bd 3d83 623e 3bf8 ef3d f498 4f3e
000001c0: ffb2 0f3d d0cc 17bd 5f90 2d3e 434f 87be
000001d0: 5cfc 26be a88e 08be d337 593e 1f2f 5e3e
000001e0: 5014 2abe 8ea1 ef3c f5d7 24be 3504 783a
000001f0: bb42 65be 6c6e 77be d072 3c3e 01f0 a0bd
00000200: f074 a43d 46c0 803e d091 253d aec6 e73d
00000210: 23bd 1d3e 7c25 093e 69ef dd3c caa1 c43d
00000220: 068b 033e 6956 143e f89f 9ebd f837 e33d
00000230: 0828 a0bd def8 e2bd 8cb4 693e b8b9 37be
00000240: f7ec 973c 020c 0ebe 1838 f7bd c8ad 52be
00000250: 630e c93d e841 6fbe 384c 293e d075 453d
00000260: 67af 4cbe c0f5 2f3d 605c fb3d 406e 283c
00000270: 9ce4 153e e89a 4c3e 3508 89bd 563f 3e3e
00000280: fcdc 70be 8cf5 39be c0f6 aabc 0109 6a3e
00000290: dca7 0b3e bc48 5dbe 8ca6 323d ba6f f33d
000002a0: b419 673e 814e 79be 2033 6cbe 2825 7f3e
000002b0: 0bb3 57bd cfe1 75bd 3079 e93d 7495 4d3e
000002c0: cddc 04be ba49 b6bd 7137 4abe 209b 87bd
000002d0: d0bd d7bd 24a5 22be 8e38 86bd 85c5 fa3d
000002e0: a467 18be 4a8a 4e3d 77b8 b5bd e4d8 663e
000002f0: 9c38 6b3e 43dc acbc d0b7 373d 1000 fc3d
00000300: d4d9 6cbe c8ef ecbd 9048 babd 6863 29be
00000310: 98d3 793e e043 c9bc 80ae da3b 3886 43be
00000320: 1064 bfbd 4492 3dbe 28c4 353e 68d4 8f3d
00000330: f097 2fbe a0df b83c 00a8 afb9 20a0 833d
00000340: 2061 ebbc 0048 2dbe 2834 ac3d f0c7 5f3e
00000350: c8d3 59be 704e 1ebe 8830 d2bd 2876 683e
00000360: d8d4 743e 6819 73be a8f4 7ebe 9038 1abd
00000370: 200f c7bd 54ec 50be 604f 443e 88f8 26be
00000380: 304c 95bd 70b0 23be d0a0 043e a0b8 5e3d
00000390: e0f3 63be 60e7 b53d a4ba 573e d42b 033e
000003a0: 60ae 20be 0875 33be b046 3abe c8bd a63d
000003b0: fc5b 7dbe 502a 633d 3091 0c3e 1037 a93d
000003c0: 144f 643e f801 7a3e f818 ac3d 4cf5 153e
000003d0: b824 df3d f057 2a3d 3cde 223e 6cab 15be
000003e0: 5071 703d 0080 933a e04c 283e e05f 1c3d
000003f0: 84e2 1b3e 9c36 343e a005 8fbc 48e8 6dbe

sequential/dense_2/MatMul f4 [1, 32]
0.019792184 -0.34997916 -0.026960937 0.3503303 0.3634514 -0.06918636 0.30999666 0.31882602
0.3050972 0.072445065 -0.30281183 -0.13003644 0.20989913 -0.06151682 -0.07648441 0.1793505
0.40617597 0.19803746 -0.28120372 0.23907465 0.13241805 0.1671064 -0.03392806 -0.3272111
0.38739598 -0.07622731 0.124903195 0.21516299 -0.3256364 0.07711505 0.13372296 -0.29352957
00000000: 3823 a23c 7830 b3be 2fdd dcbc 7e5e b33e
00000010: 4d16 ba3e 94b1 8dbd e2b7 9e3e 2a3d a33e
00000020: b335 9c3e 145e 943d 270a 9bbe 4628 05be
00000030: ccef 563e 10f9 7bbd dca3 9cbd a8a7 373e
00000040: 4cf6 cf3e 55ca 4a3e eff9 8fbe fccf 743e
00000050: 9998 073e f11d 2b3e 26f8 0abd 3788 a7be
00000060: c458 c63e 101d 9cbd 3fcd ff3d b053 5c3e
00000070: d0b9 a6be 7fee 9d3d acee 083e 8249 96be
